Parking Environment/Assets/Models/CarBehaviour.onnx (onnx, 601915 bytes, 13 tensors)

network_body.observation_encoder.processors.0.normalizer.running_mean f4 [26]
00000000: d31c f13e 3133 3c3f b95e 103f 8619 443f
00000010: 218f df3c 246b 103f 7c4c b93e e733 3d3f
00000020: 6e63 983d ca4b eb3e 7872 1b3e 15bc 303f
00000030: 2155 f33d 2b1d cb3e d6eb 1f3e 4be9 403f
00000040: 999e 333d da1a c33e 1fdf 503f f408 743f
00000050: 065a 9f3e 135e 2e3f 66c3 723f c619 7d3f
00000060: 65c3 723f c619 7d3f
0.47092304 0.7351561 0.56394535 0.76601446 0.027289929 0.56413484 0.36191165 0.7390732
0.0744084 0.4595626 0.15180385 0.6903699 0.118814714 0.3967069 0.15617308 0.75355977
0.043852422 0.38106424 0.81590456 0.9532616 0.3112337 0.68112296 0.94829404 0.9886745
0.948294 0.9886745

network_body.observation_encoder.processors.1.normalizer.running_mean f4 [3]
00000000: 314b 993e 3238 9a3e c3ea 9a3e
0.2994018 0.30121 0.30257234

network_body._body_endoder.seq_layers.0.weight f4 [264, 29]
00000000: 47b0 82bd 3dab 64bd 8a4c b83c 2a93 c9bd
00000010: 8e8d b23d d688 eabd 1fc4 633e 5565 52bc
00000020: 06bf a0bd b583 cfbb 550a 46be 0f0d a83d
00000030: 0235 293e 3585 9f3d 9b08 c83e 95e4 babe
00000040: bbc0 dfbd 696e b5be e0f8 36bd 1ce9 87bd
00000050: ebb9 e5bd 38f2 943c 5d8d 3ebe 7390 48bb
00000060: e787 d2bc 9df6 ecbc a29f 49be 21d2 283e
00000070: 7425 02be 086e 8bbd 1bbd 91be f37d a93e
00000080: 64f7 dcbe bb7e 7cbe ab7f da3e 3935 5bbb
00000090: b600 33be 7392 babd 2ef2 7dbe 1782 2c3e
000000a0: 91c0 a03c abcd c2bd f483 b1bd 3cdc 953e
000000b0: db07 91be 109a 413e c98b 923e c15c 38be
000000c0: 732a adbd bfe1 a3bd 5c67 603e 0467 973e
000000d0: 787a 453d 7b36 65bc 7401 ad3e 2e4a 643e
000000e0: 1907 2abe 2460 ca3e 98df 09bb d2ca 71bd
000000f0: 6db1 eebd f463 633d a762 0e3e c52c 08be
00000100: 9643 923e 8214 bc3d 51da 3a3e 8ec3 1bbe
00000110: b531 d1bd 2b4a 1ebe 304d 8d3e 0509 8dbe
00000120: eb97 fbbd 9859 413e 1347 f0be db12 1bbe
00000130: 08ce 7c3d 50fd 92bd ba46 833d d744 a63c
00000140: f878 89bd 778c 263e fc7e 11bd 0a4a ecbc
00000150: 946b 233e f230 a63d 0bfa 29be 4e80 8ebe
00000160: 1e1b 023e bea9 413b 0030 6dbe 5277 41be
00000170: 3b55 3a3e ee58 4abe 031f f1bd f992 4ebe
00000180: ead0 a1be 88be 773e b02e 0ebe 3d40 af3e
00000190: c4f6 7ebd c53c e53e e77e eb3e b7f1 7ebc
000001a0: e654 2d3e 49c0 c73d feb7 28be 8711 f7bc
000001b0: 6e2c 1abe 6009 f0bd 1221 d9be 432a 803d
000001c0: b8eb c4bd 4ce9 f23e 16f6 fc3d fa7e b9bd
000001d0: 7077 a53e 472f 363e 8bfd 133d f9e2 07be
000001e0: 7860 96be b17d 7cbe c987 03be 3932 9bbe
000001f0: 2d11 523e c194 30be 8667 21be ed96 b0be
00000200: 2092 f23d 4807 b13e 8044 ef3d f107 31be
00000210: e2e7 3a3d acb5 c93e e4f3 ff3d 9780 0dbe
00000220: 859c 85be 3e78 923e 3490 103e 2e6b fdbd
00000230: ec1e 88be 565f 0d3e a072 113d face 8bbd
00000240: e0d9 ce3d 6b01 32be 1159 473e 2a38 00bd
00000250: aa01 ae3d 599d dfbc 5415 fb3d a09d 7c3e
00000260: c754 673d a84d ffbd e01f 57be 0dce 90be
00000270: 77ff 2f3e 2cf9 69bd 1a6a b03d cc1d 4e3d
00000280: 616d a5bb f396 3a3e 4eb7 e73e ea32 85bd
00000290: 66bb 23bc c101 463e 7d13 1d3e c331 e03d
000002a0: a43d 8b3d 1927 b93e 0428 433e 6588 87be
000002b0: 1456 9a3d f6f1 bc3e 6c48 193e a8c7 683e
000002c0: 7f3b a23e 0285 7abe 5b72 08be d208 f43e
000002d0: f31c e2bd 56ca 793e 7f16 553c 767d 623e
000002e0: 95dd 943d eb24 5b3e c313 5a3c 7241 28be
000002f0: 57e0 903e d15e dbbc 8d19 d23e 1a32 c73d
00000300: 6394 353e 8ca3 783e d3c6 64be d6c1 e2bd
00000310: 1a4c 643d 2cca 9c3c 73c1 ec3d 018b 8abd
00000320: 9b06 6f3d 63b6 f93b 8d91 13bd 98a9 923e
00000330: 8b6a ca3c d090 f5bc e329 7a3e e06a 2cbd
00000340: dd9d 81be b15c 9bbd 36c8 d33e a5d4 5fbd
00000350: 34c9 e2bd 7a31 e5bc 15b5 813e 10aa cf3d
00000360: 927d ae3d 289f 2b3d bfff eabe 14cd 24bd
00000370: 9bab ba3e 898e 0f3d e94d a0bd bbc8 123e
00000380: b2bf 263e 11b2 e63d 5876 643d 1a5b 16be
00000390: 1655 173f 9710 88be e486 7f3d 8371 423c
000003a0: ce62 343e 61a6 ebbe ffbe 33be 9bfa 8abc
000003b0: f48c dabd 322f 323e c2bc 43be 3e10 71bd
000003c0: 560b 1b3e 84d4 bb3e fc4d 8d3d 951f b63d
000003d0: e9f0 273e a4dc 713e aa78 31be 86e8 633e
000003e0: 6153 fcbd f396 073f 4617 9a3d 6664 28bd
000003f0: 1398 9cbe f62c 953e bbb8 cd3e c6e8 0b3f
-0.063812785 -0.055827368 0.022497434 -0.098425224 0.08718406 -0.11451881 0.22242783 -0.012841542
-0.07848935 -0.0063328394 -0.19339879 0.08205616 0.16524127 0.07789079 0.39069065 -0.3650252
-0.10925432 -0.354358 -0.04467094 -0.06636259 -0.11217102 0.018181905 -0.18608613 -0.0030603677
-0.025699569 -0.028926188 -0.19689801 0.16486408 -0.127096 -0.06808096 -0.2846459 0.33103904
-0.43157494 -0.24657719 0.42675528 -0.0033448471 -0.1748074 -0.09109964 -0.24799415 0.168465
0.019623073 -0.09511884 -0.08667746 0.29269588 -0.28326306 0.18906426 0.28622273 -0.18004133
-0.08455362 -0.08002042 0.21914428 0.29570782 0.0482125 -0.01399004 0.3379017 0.22293922
-0.1660427 0.39526474 -0.0021037813 -0.059031315 -0.11654935 0.055515245 0.1390482 -0.13298328
0.2856719 0.09183599 0.18247344 -0.15211317 -0.10214559 -0.1545798 0.27597952 -0.27545944
-0.122848354 0.18881834 -0.46929225 -0.15143912 0.061719924 -0.07177222 0.064099744 0.020296497
-0.06712526 0.1626452 -0.035521492 -0.028843898 0.15959007 0.08114804 -0.1659929 -0.27832264
0.12705657 0.0029550637 -0.23162842 -0.18893173 0.18196575 -0.19760486 -0.11773493 -0.20173253
-0.316047 0.24193776 -0.13884997 0.34228697 -0.062247053 0.44772926 0.45995256 -0.015560559
0.16926917 0.09753472 -0.16476437 -0.030159725 -0.15056011 -0.11720538 -0.42408043 0.06258061
-0.09615272 0.47443616 0.12351625 -0.09057422 0.32317686 0.17791472 0.03613047 -0.13270177
-0.29370475 -0.24657322 -0.12844767 -0.30311754 0.20514365 -0.17244245 -0.15762147 -0.34490147
0.118442774 0.34575868 0.11682987 -0.17288186 0.045631297 0.39396417 0.1249769 -0.13818584
-0.26095977 0.28607363 0.14117509 -0.123739585 -0.26586092 0.13805899 0.035509706 -0.06826587
0.1010015 -0.17383353 0.1946757 -0.031303562 0.08496411 -0.027296709 0.122599274 0.24669504
0.056477334 -0.12465984 -0.21008253 -0.28282204 0.17187296 -0.057122394 0.08613987 0.050321385
-0.0050484394 0.18221645 0.45257038 -0.06503852 -0.00999341 0.19336607 0.15339465 0.10946991
0.067988664 0.36162642 0.19058233 -0.26471248 0.07535949 0.36903352 0.14969033 0.22732413
0.31686017 -0.24464801 -0.13324873 0.4766298 -0.11040678 0.24393591 0.013005852 0.22118172
0.07268826 0.21400802 0.013310376 -0.16431215 0.28296158 -0.02677861 0.4103512 0.09726353
0.17732386 0.24281138 -0.2234147 -0.110721275 0.05573664 0.019139372 0.11560335 -0.06764794
0.05835591 0.007620619 -0.03602748 0.28645015 0.024709007 -0.029976279 0.24430041 -0.04209411
-0.25315753 -0.07586039 0.41363686 -0.054646153 -0.11073533 -0.027977694 0.25333467 0.10139859
0.085200444 0.04189983 -0.45898244 -0.04023464 0.3645905 0.03504804 -0.0782736 0.14334385
0.16284063 0.11264432 0.055776924 -0.1468319 0.59114206 -0.26575157 0.0623845 0.011867884
0.17615816 -0.46025375 -0.17553328 -0.016965201 -0.10671416 0.17400816 -0.19114974 -0.05885338
0.15141043 0.36685574 0.0689964 0.088927425 0.16400494 0.23619324 -0.17331186 0.2225667
-0.12320591 0.52964705 0.0752397 -0.041111372 -0.30584773 0.29135865 0.4018 0.5465206

network_body._body_endoder.seq_layers.0.bias f4 [264]
00000000: 7249 353d 92cc 723d 7a30 d5bd 6d8d 11bd
00000010: 3ccc ddbc 7811 b7bb e6a6 f5bc a4c3 f6bc
00000020: 1cb9 8b3c 5568 c8bd 81e0 9d3c d820 783c
00000030: b159 383d ae31 3abd 12c9 5abc 6d71 b43c
00000040: 34ad c3bb 3b6e 4bbe 7d4f 213d 36ff 8ebd
00000050: e357 d6bd 719a 4d3a 3e3c 31bd bf6c 19bd
00000060: 9994 b4bd f1a9 3c3d 48cb 023e bee4 173d
00000070: 375e 973c 04eb 8b3b 034c e23b 1b7c 95bd
00000080: 230a fa3c d7ca 22bd 0a32 0f3e ff43 713b
00000090: 26b2 25be f415 1bbe 6970 00bd e755 74bd
000000a0: bb69 9b3d 50c6 11be 9311 ecbc 3a4a b0bd
000000b0: 370f 14be 1913 a53d 6368 c3bd 64d0 86bd
000000c0: ba97 49bc ad7f 683d c720 b2bd 02f4 17be
000000d0: 860e e33d 4d07 70bd 5f39 2a3d db59 07be
000000e0: 2c3b 50bd 09ac 383d 9cc2 9b3d d2e0 02be
000000f0: b1b5 a3bc ae56 4bbc 3471 e9bd 2417 0cbd
00000100: ad2d af3c a5fd 98bc ab50 b43c dce3 29be
00000110: aa9b 263d 9709 e8bc 2570 9f3b 4e03 56bd
00000120: 6436 653d 1463 9cbd c3ce 20bd 497b 28bd
00000130: 6cbd c33d 240e 20bd bee8 a5bd d619 33bd
00000140: 2c8b a33d beb0 45bd 4bea 673d 9e91 24bd
00000150: 8f2e 78bd 6d38 20be 5e97 f6bd 0145 98bc
00000160: b385 103a 933f 4bbd 76a3 26bd 58ab 1d3c
00000170: e9d6 d3bc 945c 57be 0790 a1bd c9ac 143e
00000180: e736 1ebc 4c77 17be e2e9 26be 6410 babd
00000190: 6efd 823b e70e c2bb 9354 af3b a5f2 223d
000001a0: 5788 c4bc c7aa 09bd 1441 52bd 1066 e6bc
000001b0: dbc7 26be 3a53 a43a d1d5 33bb 573b 80bc
000001c0: 8bde 86bd 0d8d 0dbe 1f51 4abc 0288 76bc
000001d0: 3f50 bd3b 8041 3c3d 94e5 963d 8c5b 4fbd
000001e0: a6ef acbd 42c2 14bc d195 0cbe 983e 92bd
000001f0: 3a18 953c 65ec e6bc f163 143e d859 ecbc
00000200: 7a4f 1bbe 38bf 52be 2fa7 c9bc 1eb2 a03d
00000210: b415 a73c 0924 39be b9ae 9b3c 35a2 41be
00000220: 6a9c 1fbe 6bd5 e8bc 18fe 3ebd a4ad 2fbd
00000230: 159b 1b3d 4fd5 67be bce0 003e 8e7e 7fbd
00000240: e55e b63d 0f53 b8bd af52 1f3b 214e 96bd
00000250: 9c23 76be 560c e53c 951f 38be 1183 70bb
00000260: 01c6 72bd 8c3b 5fbd 74f4 2e3d 86f3 b8bc
00000270: 9923 c9bd 97dc b1bd 0bb7 09be 29ba efbc
00000280: 78f5 923b f956 173d 5f09 3fbe ab09 bd3a
00000290: cbf2 c83b 566d 41bd 823c 99bd 462d d23b
000002a0: cc17 093d 3a02 49bd 11d6 8c3c d05e 64bd
000002b0: f1f8 013d fb53 28be d356 92bc 8d76 b63b
000002c0: 5441 3c3d c21d e53d 69ff c0bd fccd eabb
000002d0: 20ea 0abe f02e 2bbd f6e6 ba3c 8ef6 bc3d
000002e0: 470d 4dbc c63e 81bd 686d e3bc 6558 05be
000002f0: 85cb c9bd 54c6 e1bc c394 94bc 5417 27bb
00000300: c96c b43d df8b 433d ed76 bdbd ac8d b4bd
00000310: 9472 60bc f1e3 01bd 3fbe aabd 7b3c c3bd
00000320: 7e64 febb f413 243c 5155 823c 8f9b d8bc
00000330: ac51 94bd a861 dbbd 8928 51bd 90d3 bfbd
00000340: f050 6bbc c1dc 9f3d 9c61 c4bd 5ce3 56bd
00000350: 572a 2dbe bc72 66bd cdbe 683c 516e a8bd
00000360: 1f68 163d a1ec 9bbc fb70 963d 0901 63bc
00000370: f007 87bd e8b2 4c3d a291 8bbd 67db 07bd
00000380: 380b 17bd 5e3d c5bd 0f3a 6c3d 6d61 c3bd
00000390: 5e96 01be 41a8 d1bd a2c3 783d 54c6 35bc
000003a0: 28c1 77bc 3795 903d db12 41be 0cee 09be
000003b0: 98af ef3c c49a d3bd ad0a 9c3c 53bc 7b3c
000003c0: 45e7 f03c cf6e 11bd 83ab 80bd 98a4 053d
000003d0: 2d2e 5cbe 9cc0 c7bd 97db 17be 9e42 eabd
000003e0: e962 20bd aba5 df3d 241e 16be 61a6 7ebd
000003f0: 55a1 163e cae6 4e3d 17ac 05be b605 cfbd
0.044259496 0.059277125 -0.10409637 -0.035535265 -0.027074926 -0.0055867992 -0.02998681 -0.030122586
0.01705604 -0.09785525 0.01927209 0.015144549 0.04500741 -0.045457534 -0.013353603 0.022026742
-0.005971575 -0.19866268 0.039382447 -0.069822714 -0.10465982 0.0007843143 -0.043270342 -0.037457224
-0.08817405 0.046060506 0.12772858 0.03708338 0.018477542 0.0042699594 0.006906034 -0.07299062
0.030522412 -0.039744224 0.13983932 0.003681421 -0.1618124 -0.15145093 -0.031357203 -0.059652235
0.07588526 -0.14235806 -0.028816974 -0.086079076 -0.14458929 0.08060283 -0.095413946 -0.06582716
-0.012304241 0.056762386 -0.08697658 -0.14839175 0.110867545 -0.058600713 0.04155862 -0.13217871
-0.05083768 0.04508594 0.07605478 -0.12781075 -0.019984098 -0.012410803 -0.11398545 -0.034201756
0.021384085 -0.018675635 0.022011122 -0.16590828 0.040675797 -0.028324885 0.0048656636 -0.052249245
0.055960074 -0.07636085 -0.039259683 -0.0411332 0.09557614 -0.039075986 -0.08101033 -0.04372581
0.07985529 -0.048264258 0.056619924 -0.040177934 -0.060591277 -0.15646525 -0.1204059 -0.018587591
0.0005513087 -0.049621176 -0.040683232 0.009623371 -0.025859313 -0.2103141 -0.07888799 0.14519037
-0.009656644 -0.14791602 -0.16300157 -0.090851575 0.0039974963 -0.0059221867 0.005350658 0.039782185
-0.023990793 -0.03361013 -0.051331595 -0.028124839 -0.16287176 0.001253701 -0.0027440677 -0.015653295
-0.065854155 -0.13823338 -0.012348442 -0.015047075 0.0057773883 0.045960903 0.07368007 -0.050624415
-0.08444147 -0.009079518 -0.13729025 -0.07140845 0.018200029 -0.028188894 0.1449125 -0.028851435
-0.15167037 -0.20580757 -0.024615852 0.07846473 0.020396091 -0.18080153 0.019004213 -0.18909533
-0.15587011 -0.028422078 -0.04662904 -0.042890206 0.037989695 -0.22639965 0.1258573 -0.06237655
0.089048184 -0.09000217 0.0024310758 -0.07339121 -0.24037021 0.027959984 -0.17980798 -0.0036699215
-0.059270862 -0.054500148 0.042713597 -0.022577059 -0.09821243 -0.08684652 -0.13448732 -0.029263573
0.0044848286 0.036948178 -0.18655919 0.0014422437 0.006132459 -0.04722341 -0.07482244 0.0064140884
0.03346996 -0.04907439 0.017191919 -0.055754483 0.03173155 -0.16438286 -0.017863667 0.0055683316
0.04596074 0.111873165 -0.094237156 -0.0071656685 -0.13565874 -0.04179281 0.022815209 0.09226714
-0.012515373 -0.06310801 -0.02776213 -0.13022001 -0.098532714 -0.02756039 -0.018137341 -0.0025496082
0.088098116 0.047740813 -0.09251199 -0.08816084 -0.013699193 -0.031711522 -0.08337068 -0.0953302
-0.0077634444 0.010014523 0.015909823 -0.026441364 -0.0724214 -0.10711986 -0.051064048 -0.09366524
-0.014362559 0.07805777 -0.0958893 -0.05246292 -0.16910683 -0.056261763 0.014205647 -0.08224166
0.03672039 -0.019033732 0.07345768 -0.013855227 -0.06593311 0.049975306 -0.06814887 -0.033168223
-0.036875933 -0.096308455 0.057672556 -0.09540067 -0.12655017 -0.1023717 0.060733445 -0.011094648
-0.015121736 0.070597105 -0.18854849 -0.13469714 0.029258534 -0.103322536 0.01904806 0.015364724
0.029407153 -0.035506066 -0.06282713 0.032627672 -0.2150199 -0.09753534 -0.1482986 -0.114384875
-0.039156828 0.109202705 -0.14659935 -0.06217039 0.14709981 0.050513066 -0.13053928 -0.10108511

network_body._body_endoder.seq_layers.2.weight f4 [264, 264]
00000000: eaef 75be 9fb1 383d 0e6b 2bbe eef1 53be
00000010: e721 d3bd 1007 f43d af88 a73c a34b bbbd
00000020: cccb 843d c6ce efbd 687d 44bd 7387 81bd
00000030: c6e6 4b3d 8fd1 323e 3977 f3bd 4834 38bd
00000040: 492f 5d3d 1b37 c2bd 8b0d 9a3e 7de2 bdbb
00000050: f0d5 053d 4341 ab3b b667 be3d b1a5 c33d
00000060: 08ee 56be 1f47 3c3c cff6 09bd 26dc 273d
00000070: 38f9 a2bd 16fe c33c 65bc d5bd a5a0 44bd
00000080: 4f28 acbd 9b60 d3bd c3b0 1f3e 0f34 a1bd
00000090: a560 14bc f342 0bbe e0ac 663a 5e9b 69bd
000000a0: 609f 463b 748c f3bd e274 c6bd 5c7a 92bc
000000b0: be3c 12be e931 84be f5ff d93b 80c0 10be
000000c0: 143b 0fbe 348b 83be fa6e 79be 54dd 18bd
000000d0: 09be 65bd 5abd bd3d 215d 23be d3e4 f9bd
000000e0: 40de 1cbe abb3 183d f33e 85be 674f a0bc
000000f0: 7f80 9a3d ebb5 17bd 2606 80be 37a7 43be
00000100: 43d2 1c3d f005 79bc 6d3c 2a3e 5845 4dbd
00000110: 976b 703e 1597 debd ed23 0b3e c174 bd3d
00000120: 7899 09be 43aa 86bc 178b d93d efa1 7f3c
00000130: d3a7 ba3d a645 68ba b991 6fbe 9ede 113d
00000140: fdea 82be a6d0 423c 45b5 52be 8c5a 0dbe
00000150: 3ccd 74bd baf0 24be 1533 783d ecc9 f7bc
00000160: 3111 4c3d 9d24 e3bd 3c71 3e3c 0f8d 81be
00000170: 6c5e 7d3d a5b0 0e3e 94fd d4bd 824d 3f3e
00000180: 0a7e 9ebd 9a76 043e 3b24 26bc 9da0 d2bb
00000190: 6639 17be 26b4 b2bd 33ef 3bbe 8145 84be
000001a0: 60e6 e7bd 48b7 023c 1ca6 71bd 6f75 a43d
000001b0: 673b 5bbd db1c eebc 4fe3 d23d f5ae 833d
000001c0: ea6d 34bd 9b30 be3c a57c cfbd 30c9 8fbe
000001d0: 0ac7 983c e8d0 393d e30f 66be e162 a0bd
000001e0: bcb2 6d3e 0fba ad3d 9868 813e 6296 af3d
000001f0: ca0c 41be d6e0 44be df89 35be fe9a 06bd
00000200: 985f 813d 7405 e4bd 00a4 acbd 206d 51be
00000210: f838 4bbe 6d87 f6bd daa4 ff3d a143 073d
00000220: 8059 82bd 6827 76bd 1325 373e bb7b 6b3d
00000230: 7b21 413d d56b 2b3d e463 ef3d 75ca 72bd
00000240: 096c 92bc 2c7d efbd 9bad 823e df3d 04bd
00000250: 234b 8dbe 5aec 133d 066b b2bd f747 493d
00000260: f6b3 61bc 1d0f e0bc dbf6 9d3c e52d 5f3e
00000270: 963f 64bd 9c56 b8bd 6e19 32be 9da8 c63d
00000280: 911d bcbd 3b74 f1bd f3e7 10be 3ace 02be
00000290: 1196 293e 6f58 05be f3d3 bf3d 68b8 7bbe
000002a0: 7bdd b13d 7fed 883e 97a2 41be 5775 fdbd
000002b0: 63a6 903d 1f34 f4ba 369a 443d bbf0 1fbc
000002c0: a372 3dbe 3b81 22be b264 e4bc 82fb 9abc
000002d0: 966e 87bd d863 ebbd 2ca7 5abe aec9 ca3d
000002e0: badd aebd b3e4 99be d581 193d 5db4 d0bc
000002f0: 2e2a a23c 4acd f83d 7a65 8b3e 03e1 423e
00000300: 8eaa ceba f347 a3be 2b2f 2abe dacb 1b3e
00000310: ecd9 be3d 7719 1ebe 9534 913c 9b58 52bc
00000320: c39e 343d f7a2 ccbd 602f acbe a514 babd
00000330: d00e 1e3e 1fd3 123d cc96 6e3e 53a9 bb3d
00000340: f983 0b3d 36b3 6dbe 68b9 3cbd 0891 0c3e
00000350: c989 4dbd 169e 27bd 9692 54be 2b4d f6bd
00000360: 9c30 debc bc3d 8ebd 627f 093c c096 b6ba
00000370: 6dc1 1dbe cd0a a43d f499 52be 7c7f 773d
00000380: 777e d5bd e7cf 77bd d2cb 14be 05e9 e1bd
00000390: a96d 333e 2e25 12bd 6868 11bc 1a78 063d
000003a0: ecf4 303d c34d 37bd 466e 803d 3fab df38
000003b0: 09bd 95be de3c 30be f221 bebd 5b17 973c
000003c0: 011b 45bd d6c6 ae3d 8496 093e f921 31bd
000003d0: 173f d7bd 209e e63d 13da 353c 4602 0cbe
000003e0: 5860 403e 6bc7 b1bd be2c bb3d 1005 8abc
000003f0: 0484 0b3e 8a41 583e 9b43 2b3e 2854 07bc
-0.24017301 0.045091268 -0.16740057 -0.20697758 -0.10309201 0.119154096 0.020450918 -0.09145286
0.06484184 -0.11709361 -0.04797116 -0.06324663 0.04978063 0.17462753 -0.11887974 -0.044971734
0.054000173 -0.09483167 0.30088457 -0.005794822 0.03267473 0.0052262857 0.09297125 0.095530875
-0.20989239 0.011491566 -0.03368264 0.040981434 -0.07957691 0.023924869 -0.10436324 -0.048004765
-0.08406126 -0.103211604 0.15594773 -0.078712575 -0.009056245 -0.13599758 0.0008799564 -0.057032935
0.0030307397 -0.11892024 -0.096902624 -0.017880611 -0.14280984 -0.25819328 0.006652827 -0.14135933
-0.1398738 -0.2569214 -0.2435874 -0.03732045 -0.056089435 0.092646316 -0.15953495 -0.12201848
-0.15319157 0.03728072 -0.2602459 -0.019569112 0.0754404 -0.037038725 -0.2500469 -0.19106756
0.03828646 -0.0151991695 0.16624613 -0.05011496 0.23478542 -0.1086866 0.13587923 0.09250785
-0.1343745 -0.016438609 0.106222324 0.015602573 0.09114041 -0.0008860476 -0.23395433 0.035612695
-0.25569907 0.011890566 -0.20576961 -0.13804072 -0.05976604 -0.16107455 0.06059559 -0.030247651
0.049821083 -0.11090968 0.011623677 -0.25302932 0.061857626 0.13934572 -0.10399929 0.1868191
-0.07738884 0.12935868 -0.010140474 -0.006427838 -0.1476799 -0.08725767 -0.18352966 -0.25834277
-0.113232374 0.007978268 -0.058996305 0.08030211 -0.053523447 -0.029066494 0.10297262 0.06429855
-0.044050135 0.023216536 -0.10131196 -0.2808318 0.018649597 0.045365244 -0.22466998 -0.0783136
0.23212713 0.084827535 0.2527511 0.08573605 -0.18852535 -0.19226393 -0.17728375 -0.032862656
0.06317061 -0.111338526 -0.08429718 -0.20451784 -0.1984595 -0.12037549 0.12482615 0.03302348
-0.06364727 -0.060096174 0.17885236 0.057491045 0.04715107 0.041850884 0.116889745 -0.05927511
-0.01787378 -0.116937965 0.25523075 -0.032285567 -0.27596387 0.036114074 -0.08711819 0.049140897
-0.013775816 -0.027350957 0.019282749 0.21794851 -0.055724703 -0.090008944 -0.17392513 0.09700129
-0.09185327 -0.11789747 -0.14150982 -0.12773982 0.16561152 -0.13022016 0.09366598 -0.24582064
0.08684822 0.26743695 -0.1890968 -0.123758964 0.07062986 -0.0018631256 0.04799863 -0.009761984
-0.18500762 -0.1586961 -0.027880047 -0.018918756 -0.066128895 -0.11493653 -0.21352834 0.099017486
-0.08538385 -0.30057296 0.037477333 -0.025476629 0.019795503 0.12148531 0.27225858 0.19031148
-0.0015767382 -0.3189083 -0.16619556 0.15214482 0.09318909 -0.15439402 0.017725268 -0.012838508
0.04409672 -0.099920206 -0.33629894 -0.09085969 0.15435338 0.035845872 0.23299712 0.091631554
0.034061406 -0.23212895 -0.046075255 0.137272 -0.05018023 -0.040922247 -0.20759043 -0.12026437
-0.027122788 -0.06945369 0.008392187 -0.0013930425 -0.15405817 0.080098726 -0.20566541 0.060424313
-0.10424512 -0.060501006 -0.14530876 -0.11030773 0.17522301 -0.03567999 -0.00887499 0.03282938
0.043202326 -0.044751894 0.06271033 0.00010665366 -0.29245785 -0.17210719 -0.09283818 0.018443754
-0.048121456 0.08534019 0.13436323 -0.04324529 -0.1051008 0.11260629 0.011099356 -0.13672742
0.18786752 -0.08680614 0.09139393 -0.016848117 0.13624579 0.21118751 0.16725008 -0.0082598105

network_body._body_endoder.seq_layers.2.bias f4 [264]
00000000: 39dc 6a3c 1a03 f8bc 6463 05be 7ebe a93d
00000010: d01e b3bd f16b 743c 1ee6 05bd 2dcd a9bd
00000020: d7ae 81bd 1aba 1ebe ddd2 0abe 38dd 1cbe
00000030: 0e53 6fbd 309a de3d dd98 20bd 6ace 3c3d
00000040: 532b 9ebc 0bab 69bd 2a64 07bd 597f c6bd
00000050: 970b 99bd d9e3 83bd 061b a9bd f0d3 d4bd
00000060: 4495 f3bd e646 223d d3ee d5bd 664b e83c
00000070: 8ff1 06be 864f 633c d323 91bd 2d7a d2bc
00000080: c048 7d3d 8c10 78bd d10d 95bd e19e ccbd
00000090: 40de e3bd 8934 c93c 2f9a 33bd aebe 92bd
000000a0: 920a 36be 2fc1 cbbd f31f 61bd 7df3 483c
000000b0: b83e f2bd 6df7 063c 21f0 bfbd 9bb8 19be
000000c0: efbf 91bd cad5 a5bc 231e 13bd 4465 0fbd
000000d0: c876 76bd 279b c6bd 568a f6bd f09b 9bbc
000000e0: 21c0 1fbe 14d8 44bd 29b7 7c3c 6b36 83bc
000000f0: c5da 99bd 3d25 83bd a2d3 cb3c 1e86 f5bd
00000100: 9d3c 1cbd feea 983d 3392 0ebe 761d c3bd
00000110: 51c2 0ebd b389 6dbd 2593 963c 36da 12be
00000120: 9545 02bd eb8f 2d3c a3e1 95bd 7196 8d3b
00000130: fcb3 05be 227b 6c3d a0dd 87bc 46af 87bb
00000140: 7a3a c6bd c24f 92bc e3f9 ecbc a59b 713d
00000150: d80e 15be bc04 953d bb5c f3bd 2164 ddbd
00000160: 076f 883c fcbc 8a3b cb94 8abd fcee 9fbd
00000170: 09ec 3c3d 6817 b838 d1a0 33bd f447 d5bd
00000180: bc20 153d 39d8 cfbd 96e4 d4bc 35bf ebbd
00000190: 35c0 74bd 330e 72bd 3a9b 26bd 88cc 87bc
000001a0: d9e4 e9bd bf6b febb 863b 8bbd 8e25 a8bd
000001b0: 718d dcbd 9d5c 3dbe bc86 fbbc d5fa 2abd
000001c0: 09f4 cabd 60be 34be 6435 0dbe ee27 e1bd
000001d0: 5588 bcbd 186a d5bd 926b 90bd 520b 963b
000001e0: 2751 e93b f36c 88bc 0af3 dabd d114 1fba
000001f0: 9207 34be 6d81 50bd 412f 2a3d 15d0 0e3d
00000200: d406 02be b40b e13c b43f bbbd b5d5 13bd
00000210: c10f f83b a6b9 05bb 0876 ef3c 88cc afbd
00000220: 28b1 80bc f321 8f3d 6bf9 883d b0d1 33bd
00000230: 4b45 6dbd 0e78 b1bb c6fa 8ebd 2c03 5fbd
00000240: cf3f c2bd baa2 69bd 7e1d 3cbd ac85 323d
00000250: 1d35 4fbd 116b 70bd 41c7 c9bd ce36 83bd
00000260: 3765 cdbd 8488 983d d748 c4bc 9a61 c4bc
00000270: b0e6 2bbd a387 f9bb 90d6 23be de0e 173d
00000280: ac9c 9dbd 3199 eabd 5b31 12be 3293 27bc
00000290: de3d d63c d3e2 353d e99f 62bd bfa5 74bd
000002a0: e913 2abd 517b b83d 651e 01be 9cf0 3a3b
000002b0: cf69 a9bd ce20 15be f3e9 683c 62ea 783d
000002c0: dc32 383c 9d91 363d 3074 76bd a8ce 01be
000002d0: fcc2 aa3d 29e0 10be 06bf 3bbd 0b4e 2bbe
000002e0: b758 aa3c 6520 2fbd 0d6a 51bd d211 5abd
000002f0: bc89 15be 7378 95bc 0ad8 adbd 0e26 a9bd
00000300: cb25 b9bd 6e13 d7bd f4ae 323d cfed 403d
00000310: 9bba 41bd fd23 13be 01a7 f5bd 7d0b 623d
00000320: 8288 d7bb 2161 28bd 5e67 27bd 00fc 653c
00000330: 5c72 9ebd 7c17 0fbe e6b4 f2bd a853 663d
00000340: 2ce3 8ebd f498 55bb 5753 06bd 6db3 64be
00000350: 03e5 cdbd f6ec 8abd 6eee 71bd 1492 18be
00000360: 4585 c3bd b1c0 cdbd 3ff1 03bd 2889 063d
00000370: 0eba 7a3c aec5 b3bd 9d69 0abd ebf8 d4bd
00000380: 41d6 d2bd 489c f9bc e544 8fbd db65 9ebd
00000390: e6d6 3dbe 2ffe 0bbd 00df a7bc 1247 e3bd
000003a0: 82a2 283c 7494 1cbe 6006 04be 9585 7fbd
000003b0: 28ea a9bd 7c03 a6bd 81c8 c9bd 93da a6bd
000003c0: e73f 11bd de3d e4bd 075a 1ebd 0c01 43be
000003d0: 0ca8 b7bc b4b5 863d fbb5 ee3d 9ff7 dfbd
000003e0: 42b3 d2bd cfff a43b baba 0bbd a0e8 6d3d
000003f0: ee3b 863d 7c2a 1e3d 84de 8dbd c060 ddbc
0.014334732 -0.030274916 -0.13026196 0.082882866 -0.087461114 0.014918313 -0.03269016 -0.08291087
-0.06332176 -0.1550068 -0.13557 -0.15318763 -0.058428816 0.10869253 -0.03920828 0.04609529
-0.019307768 -0.057047885 -0.03305451 -0.096922584 -0.07472914 -0.06439943 -0.082571074 -0.10391986
-0.118937045 0.039618395 -0.10445943 0.028356265 -0.13178085 0.01387394 -0.07086911 -0.025693024
0.061836958 -0.060562655 -0.07278026 -0.09991241 -0.11126375 0.024561184 -0.043848213 -0.071652755
-0.1777747 -0.09948956 -0.05496211 0.012265083 -0.11828369 0.008237702 -0.09371973 -0.15011828
-0.071166866 -0.020243544 -0.035917412 -0.035008684 -0.060171872 -0.09697562 -0.12038104 -0.018995255
-0.15600635 -0.04805763 0.015424528 -0.01601716 -0.0751243 -0.06403587 0.024881188 -0.119884714
-0.038143743 0.07466696 -0.13922958 -0.095271036 -0.034853283 -0.05799265 0.01838071 -0.14341053
-0.03180464 0.010593395 -0.073184274 0.0043209125 -0.1305694 0.057734616 -0.016585171 -0.0041407673
-0.09679122 -0.017860297 -0.028927749 0.058986325 -0.14556444 0.07276294 -0.11882921 -0.10810114
0.016654504 0.0042339545 -0.06766661 -0.078092545 0.04612354 8.7781635e-05 -0.04385454 -0.104141146
0.03640817 -0.10148663 -0.025987905 -0.11511079 -0.059753615 -0.059095573 -0.04067538 -0.01657702
-0.11420602 -0.007764309 -0.067984626 -0.08210288 -0.10769165 -0.1849236 -0.030703895 -0.04174312
-0.09909827 -0.17650747 -0.13789898 -0.10993944 -0.09205691 -0.104206264 -0.070517674 0.004578986
0.00712027 -0.016653514 -0.10690887 -0.00060684705 -0.17581013 -0.05090468 0.04154897 0.03486641
-0.12697917 0.0274714 -0.0914301 -0.03609248 0.0075702374 -0.0020404845 0.029231086 -0.08583933
-0.015709475 0.06988897 0.06688198 -0.043901145 -0.05792741 -0.005415923 -0.06981425 -0.054446384
-0.09484827 -0.057039954 -0.045926563 0.04358451 -0.050587762 -0.058695856 -0.09852458 -0.064069375
-0.10029071 0.07447913 -0.023960514 -0.023972321 -0.041968048 -0.007615046 -0.15999818 0.036879413
-0.076958984 -0.11455 -0.1427664 -0.010227965 0.026152547 0.04440577 -0.055328283 -0.05972838
-0.041522894 0.09007896 -0.12609251 0.0028524762 -0.082721345 -0.14563295 0.014215934 0.0607704
0.011242595 0.04457246 -0.0601694 -0.1267649 0.083379716 -0.1414801 -0.04583647 -0.1672899
0.020794256 -0.042755503 -0.05112653 -0.05323965 -0.14603323 -0.018245911 -0.08488472 -0.082592115
-0.090404116 -0.10501753 0.04362388 0.047101792 -0.0472971 -0.14369197 -0.11994744 0.055186737
-0.0065775523 -0.041108254 -0.040870063 0.014037132 -0.07736656 -0.13973802 -0.1185091 0.056232125
-0.06976923 -0.0032592388 -0.032794323 -0.2233407 -0.10053446 -0.06783478 -0.059065275 -0.14899474
-0.095469035 -0.100465186 -0.032212492 0.032845646 0.015303148 -0.08777939 -0.033792127 -0.1039904
-0.10294772 -0.030470029 -0.069955625 -0.07734271 -0.18539008 -0.034177955 -0.020492077 -0.1109754
0.010292651 -0.15291005 -0.12893057 -0.062383253 -0.08296615 -0.08106133 -0.09852696 -0.081471585
-0.035461333 -0.11144613 -0.038660076 -0.19043368 -0.022418998 0.06577626 0.11655804 -0.10935902
-0.10288097 0.0050353776 -0.034113623 0.058083177 0.065543994 0.038614735 -0.06927207 -0.027023673

network_body._body_endoder.seq_layers.4.weight f4 [264, 264]
00000000: fffd 71bd 47d1 013d 86c3 093e 3a4b aabd
00000010: ba9a 353d f64d e13b 8bbe d73d 3104 c93d
00000020: 898b 1e3e 7106 963e 312b 8f3e ea91 173d
00000030: e222 873c f38c a6bd 6cc1 68be 4381 bdbd
00000040: 9111 53be 7835 65bd e07c b4bc 8b60 c53d
00000050: 67c1 713d 2320 333e c317 07be 7019 3fbd
00000060: b500 18bd 3fd0 00be 2809 033e 50f6 53bd
00000070: 673a 023e d6c2 3fbe 4f1c 103e 8064 6cbe
00000080: c09e efbe 2173 c6bd e8a9 f4bc ffe4 f1bd
00000090: d15d 9dbb 7f58 9ebe d04b a43d b24e 99bd
000000a0: 6f72 bf3d ecaa 3d3e 391f 0a3d f8ce 6a3c
000000b0: 2bec 84bd 6970 023c 2bed a83d 5953 e9ba
000000c0: 3c9c 0c3d e972 6cbd afbb ac3d d493 fcbd
000000d0: 7400 7a3d e039 043e 0afc 003e 40e0 efbd
000000e0: 2bad 123e 90f7 b43d a42c f0bc 2372 e5bd
000000f0: 0f2c 2e3d 8421 f33d 4b9c 83be e23b d63d
00000100: c603 373e c2a0 b5bd b3d9 b93d 0b42 123d
00000110: 0689 eebd 1c7d 52bd ce7c a0bd 3ff9 163c
00000120: 8176 393e 0461 403d d69f 9d3c 9015 00be
00000130: 8967 2f3d 1688 f0bd f59d ef3d d4d2 94bc
00000140: e5fb 49be 763e 6fbe 2561 22bd d329 62be
00000150: 43b8 e63d 632a d2bd c404 143d 1926 123a
00000160: 2285 01be b55f fd3d bdb4 32be cd23 1c3e
00000170: 0399 d4bd b98d 8e3c 95b1 0a3d 9d43 9d3e
00000180: 34b8 543d de49 e3bd efe2 0fbd 680d 103e
00000190: 6862 a93d f3ec fd3d 8d8d de3d 4c97 fc3c
000001a0: 5571 d63d 8345 69bc 0be4 2ebd c97e 933d
000001b0: 67f6 db3d adeb 1a3e a342 fbba 9d28 0f3e
000001c0: 62c1 723d ec5e 0c3e 28b0 953e 60f7 ea3d
000001d0: 99e6 5c3e 33ea 1a3e 87ee 0f3e 99d2 45bb
000001e0: 3ace dcbd f401 c0bd a1bc 973e ea1e 22be
000001f0: 40ef 5e3e 912d 5b3d 661a ee3c b1fa 24be
00000200: 9ce2 70bd d716 1abe d36b ab3c b371 fa3c
00000210: 211e c4bd 4fc5 4cbe 3990 8c3c 55a4 ed3d
00000220: 9532 66bd 43a6 a9bd 682d 13be 5611 203e
00000230: db60 16be 019a 4dbd 865b 8c3d ee12 b73d
00000240: 2217 c23c dd71 853e 47b5 b33d 7149 563e
00000250: 7580 19bd 8430 0b3e 6939 54be 1921 fd3d
00000260: e804 0bbd adcd dcbd be0f 16be 44d6 9f3d
00000270: 1440 fd3b 0b07 0b3d ddd7 083e c805 0ebe
00000280: 1aff 19be c1bb d23d 0979 e0bc 48ce 66bd
00000290: 69cf 08be 2672 e8bd 5bea 89bd d9d0 a9bd
000002a0: 8466 fc3d 0433 27be 421a 013e c605 963c
000002b0: 25ea 1a3e c99e 1d3e d3d1 43be d25e 1fbd
000002c0: 2bee 1abe ca8d 54be eefb b3bd a450 d5bd
000002d0: 3315 c6bd a58a ca3d b197 6b3e 380d 233e
000002e0: 2077 f2bd 6d82 17be 63fb a73d 6234 a0bd
000002f0: 1871 ca3d ebfa e6bc 7d15 c33c b305 43bc
00000300: 4550 163e 4d5d e2bd 4f97 8fbd 0ed0 afbd
00000310: fb9e d53c bd79 683d dee7 c3bc f0c7 2dbe
00000320: 1cfb 8cbe 8fd5 723e bf80 44bd 66ac 21be
00000330: fd5c 02bd cfba 3e3e ae9e 003d 4b67 88be
00000340: f51b 983d ed9e b2bd be93 85be 1f73 6d3d
00000350: 62db aa3e efd2 81bd dea0 0ebe 88be 713e
00000360: 0dd6 9c3d 80bd c53d 8a4c 8fbb 7140 c9bd
00000370: 2b1f 4cbd 3030 353e 9fc5 743d a8c6 56bd
00000380: d998 b13d 279a d63c 9195 b53d 126f de3b
00000390: 029b 053e 418e 95bb 2b9f dcbd ff9c abbd
000003a0: 1dba 37be a682 993c 45cc f63d fb5f 343d
000003b0: 0a83 4f3e 3716 0cbe c4fb 773d 425c 2db9
000003c0: be6e 493e 22f6 9a3d d9c3 393e 4bb3 1f3e
000003d0: 5715 c53d 43a3 373e cdba 9dbc 861d 55bd
000003e0: 62e3 113d 1ce1 4b3e bc06 a5bd 0bc9 35be
000003f0: 6aba 17be 4123 b8bc 22d8 7ebd 9c88 4d3d
-0.05908012 0.031693723 0.13453493 -0.083151296 0.044337012 0.0068757487 0.1053439 0.098152526
0.15482916 0.2930179 0.2796264 0.03700439 0.016496126 -0.08132353 -0.22730035 -0.0925317
-0.2061217 -0.055959195 -0.022032201 0.09637555 0.059022333 0.17492728 -0.13192658 -0.04665512
-0.03711005 -0.1257944 0.12796462 -0.051748574 0.12717591 -0.18726668 0.14073299 -0.23085213
-0.46800804 -0.09689928 -0.029866174 -0.11811256 -0.0048024436 -0.30926892 0.080222726 -0.07485713
0.09347998 0.18522233 0.033721182 0.014331572 -0.06490358 0.007961371 0.08248361 -0.0017801329
0.034328684 -0.057726774 0.08434235 -0.123328835 0.06103559 0.12912703 0.12596145 -0.11712694
0.14323871 0.08836281 -0.029318161 -0.112034105 0.042522486 0.11871627 -0.2570518 0.104606405
0.17872533 -0.08868553 0.09074726 0.035707515 -0.11647229 -0.051388845 -0.078363046 0.009214698
0.18111612 0.04696752 0.019241255 -0.12508225 0.04282335 -0.11744706 0.1170005 -0.018166937
-0.19724996 -0.2336367 -0.039643425 -0.22086267 0.11265614 -0.10261991 0.036137357 0.0005575135
-0.12648442 0.1237177 -0.17451759 0.15248032 -0.10380747 0.017401563 0.03386076 0.30715647
0.051933482 -0.110980734 -0.03512853 0.14067614 0.08270723 0.1239871 0.108668424 0.030833863
0.10470835 -0.014237764 -0.042697947 0.07201917 0.10740357 0.15128966 -0.001916964 0.13980336
0.059266455 0.13708085 0.2923596 0.11472964 0.21572341 0.15128402 0.14055835 -0.003018534
-0.10781522 -0.093753725 0.296361 -0.15832105 0.21770954 0.053510252 0.029065322 -0.16111256
-0.05880986 -0.15047775 0.020925438 0.030571794 -0.09576059 -0.19997142 0.017158614 0.116036095
-0.056200583 -0.08283665 -0.1437279 0.15631613 -0.14685385 -0.050195698 0.06853394 0.089391574
0.023692671 0.26063433 0.0877481 0.20926453 -0.03747602 0.13592726 -0.20725025 0.123598285
-0.033940226 -0.10781417 -0.14654443 0.0780454 0.007728586 0.033942264 0.13363595 -0.13869393
-0.1503872 0.102897175 -0.027401464 -0.05634907 -0.1336037 -0.11349897 -0.06734153 -0.08291788
0.12324241 -0.16328055 0.12607673 0.0183133 0.15128382 0.15392603 -0.1912301 -0.038908787
-0.15129916 -0.20757213 -0.08788286 -0.104157716 -0.09672012 0.098897256 0.23007084 0.15923011
-0.118391275 -0.14795847 0.08202245 -0.07822491 0.09884852 -0.028195819 0.023813957 -0.011903214
0.14679058 -0.11052952 -0.07011282 -0.08584605 0.026076784 0.056756724 -0.023914274 -0.16970801
-0.2753533 0.23714279 -0.047974344 -0.15788421 -0.03182696 0.1862595 0.03140133 -0.26641306
0.074272074 -0.08721719 -0.2608928 0.057971116 0.333705 -0.063390605 -0.13928553 0.23607838
0.076580144 0.09655285 -0.004373138 -0.09826744 -0.04983441 0.17694163 0.05975878 -0.052435547
0.086717315 0.026196552 0.08866418 0.006788143 0.13047412 -0.004564077 -0.107725464 -0.08379554
-0.1794209 0.018739056 0.1205068 0.044036847 0.20264831 -0.1368035 0.060542837 -0.00016532934
0.19671151 0.07566477 0.18141116 0.15595739 0.09623211 0.17933373 -0.019254113 -0.05203011
0.03561724 0.19910091 -0.08057925 -0.17752473 -0.14817205 -0.022477748 -0.06221784 0.05017911

network_body._body_endoder.seq_layers.4.bias f4 [264]
00000000: 0a8f 33be f327 54be f886 3abd efa2 98bd
00000010: d20e 19be ff8c eabd 8b0c 97be 7ab9 a6bd
00000020: 8ea8 acbd b619 95be 51ca dcbd b8c4 03be
00000030: ab86 4bbe a13a 2fbd 669e e0bd 9887 31be
00000040: e86f 973c 46e8 f8bd 39a6 5abd 8fa1 3dbe
00000050: ef45 673d 34d2 a6bc 6c5b 73be 73a5 aabe
00000060: c6d5 a0be f8c0 85bd f171 c539 9e75 31be
00000070: 217f 0fbe 04ff a0be 82db 933d 865e 18bd
00000080: 2727 78be 6c71 10be a51f 38be 75ac 6fbc
00000090: c8a9 25be a849 f6bc 5ac7 39be d50a 8bbe
000000a0: 712a d7bd 75f5 84be 805f 1ebe 805f 19be
000000b0: dd96 0bbd f6a0 63bd 2229 2bbe 66bd 66be
000000c0: 8a04 90bd 9ff5 5ebd edac 49be 840e 153d
000000d0: 02f5 9ebd bae9 12be 0dc5 0fbe ae8e 12be
000000e0: 70c9 30bd f8dd a6bc 9342 b4be 0c0d a9be
000000f0: 59f2 dfbd be58 48be f2e3 13be 0ec9 d3bd
00000100: efb9 21be 2388 a5bd eac2 04bd 4bca 03be
00000110: 4414 6abe a02b 46be 84e2 493b 1955 56be
00000120: 8ece 8cbe 8e80 5f3d 773f 89bd df8c 1abe
00000130: 26f7 043d 1c88 b6bd 4f10 f1bd acca f5bd
00000140: 3694 c2bd 15a8 68bc 9e80 3bbe 36ba 9ebd
00000150: d5a9 ffbb e971 e9bc dc1c 1bbe 9e66 a5be
00000160: 9539 c4bd 9e95 953d ba4e 1ebc 4552 66be
00000170: d0b7 37bd 61f5 5dbe bef7 aebd e891 fbbd
00000180: 6fa1 f0bd aea8 80be 17b6 5dbd 3436 8c3d
00000190: fc04 14be a5bd e6bd 5f62 95bd 5ebc c6bd
000001a0: a410 99bd ee19 7bbe 0445 4bbe b64b d7bd
000001b0: 26ed cdbd 0d76 5c3d e875 09bd b8e7 54be
000001c0: 84f8 58bd 0d69 50bd 1b1e 67be d588 4dbd
000001d0: b31b b0bd 0364 efbd cf04 90be 1879 0cbe
000001e0: 8d41 8f3b 3a7a aebd 16ff f6bd 4d68 fbbd
000001f0: 25f3 0ebe 866d 94bd 2b60 40bd 6e10 2d3b
00000200: 3800 28bd 3a43 1fbd 0fd1 89bd c1af 80be
00000210: 04c9 a7bd 1c6d aebe e241 34be 919d a4bd
00000220: f6a8 e63d 7aa3 e4bd c720 02bb 63f8 3cbd
00000230: e440 70be 140f 6abd efc0 c1bd e4b7 2fbe
00000240: 62d6 4abe 1386 06be c426 88bc 5b49 e6bd
00000250: bc07 a0bd 2f73 8bbe 39b5 81be 86d0 31bd
00000260: a70a 263d 821e 6ebd 0b01 7cbc fe26 bebd
00000270: 37dd 9ebe 9d09 0dbe 9d7b 2dbe c52a e7bc
00000280: 036f a4bd b65f 9b3b 2f18 e7bd 5399 8dbe
00000290: 88ef 6ebe be48 253d 971e 2cbe ffa8 0abe
000002a0: 8875 a3be a945 07be 03f0 c6bd 8b72 91be
000002b0: 724b 2fbe c712 ccbd 0ecf 88be f1bf 8a3c
000002c0: 457c acbe af97 08be 7b5f b9bc 9ca5 c1bd
000002d0: ab5a 4abd 92cf e2bd 199e 8dbd a616 07be
000002e0: f410 fabd 68ab 3bbe 5428 b5be 64d6 b8be
000002f0: bfa3 60be f009 25be 09d9 03be c9c2 b1bd
00000300: 5758 1cbe 17e5 b0bd 103e 16be 8bc2 2abe
00000310: 2de0 1abe c2d0 eabd ff66 78bd d13d b1bd
00000320: e9c4 e1bd 9a98 6bbd b213 8fbe e436 733c
00000330: 89a4 38be de8e 93bc 6988 01be 09b6 8cbe
00000340: 07af cbbd 7198 6ebd bb8a a2be 28d2 0ebe
00000350: 7b6e 69be 3d47 04be ac25 6ebd c454 29be
00000360: 64e3 aabd 442c 88bb 63a7 d0bc 59ee 05be
00000370: 4fdc fabd c0da 29bd d82d a6be 0a28 82be
00000380: 5793 12bd 29e5 fabd 5243 efbd c899 80bd
00000390: 9afa 3ebe 955c c6bd 5a3d 09be aa19 d3bd
000003a0: c333 90bd 1a69 783c aaa9 77bd cacd 1ebe
000003b0: 256d 34bb 310a 1bbe 3868 d6bd 21fc ccbd
000003c0: 9195 f2bd ae88 85be 9df8 23be ba8f 06be
000003d0: 9eed e8bd c225 94bd 522b bbbd 7a13 47be
000003e0: bca1 9fbd 63d4 89bd 2690 3abd 57f5 09be
000003f0: 26e5 f8bd cfd5 96bd d176 d2bd cf8d 3dbd
-0.17535034 -0.20718364 -0.045538872 -0.07452952 -0.1494706 -0.11452674 -0.29501757 -0.081408456
-0.08430587 -0.29121178 -0.10780776 -0.12868011 -0.1987559 -0.042780522 -0.10967712 -0.17336881
0.018485978 -0.12153678 -0.05338118 -0.18518661 0.05646318 -0.020363905 -0.23765343 -0.33329353
-0.31413096 -0.065309465 0.0003765966 -0.17330024 -0.1401334 -0.3144456 0.07219602 -0.03719952
-0.24233685 -0.14105767 -0.17980821 -0.014628519 -0.16178048 -0.030064419 -0.18142453 -0.27156702
-0.10506142 -0.2596852 -0.15466118 -0.14977837 -0.03407942 -0.055573426 -0.1671491 -0.22533187
-0.07032116 -0.05443346 -0.19694872 0.036390796 -0.07761575 -0.14346972 -0.14040013 -0.1431224
-0.043160856 -0.020369515 -0.35207042 -0.33017766 -0.10934896 -0.19565102 -0.14442423 -0.103410825
-0.15793584 -0.08082607 -0.032412447 -0.12870137 -0.22859293 -0.19352579 0.003080518 -0.209309
-0.2750134 0.05456596 -0.06701558 -0.150928 0.03246226 -0.089126796 -0.11770689 -0.12001547
-0.09500925 -0.01420023 -0.18310782 -0.07750361 -0.007802228 -0.0284967 -0.15147728 -0.32304853
-0.095812954 0.07303928 -0.009662325 -0.22492321 -0.04485303 -0.21675636 -0.08543347 -0.12283689
-0.11749541 -0.25128692 -0.054128733 0.06846276 -0.14455026 -0.112666406 -0.072941534 -0.09703897
-0.07473877 -0.2452161 -0.19850546 -0.105124876 -0.10054998 0.05382352 -0.03355971 -0.20791519
-0.052971378 -0.050881434 -0.22570078 -0.05017932 -0.08599033 -0.116889976 -0.2812867 -0.13718069
0.004371828 -0.085194066 -0.120603725 -0.12275753 -0.1395994 -0.072474524 -0.046966713 0.0026407498
-0.041015834 -0.03888247 -0.06729328 -0.2513409 -0.081926376 -0.3406762 -0.17603257 -0.08037866
0.112626955 -0.11163993 -0.0019855963 -0.046135318 -0.23462254 -0.057143286 -0.09460627 -0.17159992
-0.19808343 -0.13137083 -0.016620047 -0.1124446 -0.07813975 -0.27236316 -0.25333574 -0.043411754
0.040537503 -0.058134563 -0.015381108 -0.09284781 -0.3102815 -0.13773198 -0.16941686 -0.028218636
-0.08028986 0.0047416342 -0.112839095 -0.2765604 -0.23333561 0.040352575 -0.16808544 -0.1354103
-0.31925607 -0.13210167 -0.09713747 -0.28407702 -0.17118624 -0.09964519 -0.2672047 0.016937228
-0.3368856 -0.13339113 -0.022628536 -0.094554156 -0.049402874 -0.11074747 -0.0691492 -0.13192233
-0.12210265 -0.18327105 -0.3538233 -0.36101067 -0.21937464 -0.16117072 -0.12875761 -0.086797304
-0.15268074 -0.086374454 -0.14672112 -0.16675775 -0.15124579 -0.11465599 -0.0606451 -0.08654369
-0.11023886 -0.05751858 -0.27944714 0.01484463 -0.18031515 -0.01801246 -0.12649693 -0.27482632
-0.09945493 -0.05825085 -0.31746468 -0.13947356 -0.22796051 -0.129178 -0.058141395 -0.16536242
-0.083441526 -0.0041556675 -0.025470441 -0.13079204 -0.12249052 -0.041468382 -0.3245685 -0.25421172
-0.035785045 -0.1225074 -0.11682762 -0.062793314 -0.18650284 -0.09685627 -0.1340231 -0.103076294
-0.07041123 0.015161777 -0.06046454 -0.1550819 -0.0027530876 -0.15140606 -0.10469097 -0.10009027
-0.11844934 -0.2608084 -0.16012807 -0.13140765 -0.11373447 -0.07233764 -0.09139122 -0.19441023
-0.0779452 -0.06729963 -0.045547627 -0.13472496 -0.121530816 -0.073649995 -0.10276569 -0.046277817

action_model._continuous_distribution.log_sigma f4 [1, 3]
00000000: 365a cdbf 658d b4bf 2734 aabf
-1.6043155 -1.410565 -1.3297166

action_model._continuous_distribution.mu.weight f4 [3, 264]
00000000: a370 9c3d cf98 503c d7b9 893b 7f36 cc3d
00000010: 87b6 a3bb c22c 62bc 7105 293d 45ff cebc
00000020: 8096 b43c 82ce 9f3d f411 58bd 9efb 40bd
00000030: 929a 473d 692f 64bc 09ba a93c 7b50 243d
00000040: f705 3b3d cb07 f3bb 49f1 863d e8b4 eb3c
00000050: fcfa c3bd 4e93 b5bd d288 453d 13d6 233d
00000060: 230a 933d c4e1 3f3d 97d7 cbbd c5de 723c
00000070: 3821 00bd 3cd2 a93d 66a5 25bd 966b 773d
00000080: e65e 673c 2ca9 503d c45f ad3a 2c7f 8ebd
00000090: 5be5 c83c 9822 f43c e0df 593d 9b69 1f3d
000000a0: 07d0 6a3d 2e19 8e3d 682e e63c ba20 4a3d
000000b0: df39 853d fed7 eb3c 733e f23c 02e5 0f3d
000000c0: 6a62 153d c641 e3bc 824f 163d bb75 743c
000000d0: a21c f13c 4108 113d 3f22 e63c bde4 e7ba
000000e0: 983a 45bc b04e 773d 6e45 e03d 0d01 0a3c
000000f0: cb88 bf3d b13f 42bb f4b1 fa3c c1f8 bfbb
00000100: e227 453d 9bca ba3a 9f9c cabb f22b 323d
00000110: c460 863c e1f4 063d 3043 f2bc 920a 493c
00000120: 476e 673c 99d0 a7bd 27c2 d93d 9b41 3f3d
00000130: 9711 72bd d126 5cbc f755 c83d 78eb 753b
00000140: 586d 2f3d 3ed2 383d 39a8 393d 4f3f ecbc
00000150: 9c3d c83b 6db6 9dbc 5d7e 153d adba ab3d
00000160: b3dd 773c a187 92bd f1b9 af3d 9f58 523c
00000170: 84b9 2a3b e5d7 da3d e7da 823c 58f8 2f3d
00000180: a6aa 173d cf26 723d c06f 45bd f44c aebd
00000190: f263 5cbc 3eda 4e3d 6d35 c6bc 1d88 7b3d
000001a0: 949b 23bd 6ce1 4d3d 79d9 babc d544 303d
000001b0: 99c7 5f3c f926 1f3c db91 233d 7087 ca3c
000001c0: 002c a7bd dca1 193d 620d a33c b958 c23c
000001d0: 57b3 133d 7500 2c3c 4040 3f3c 9d66 023c
000001e0: 8c84 9f3c bc7e 663d cb7b 373d a2d6 fa3b
000001f0: 2a81 2c3d 7c69 1d3d ccb1 e0bc 8984 e53c
00000200: aad1 613d 2c17 ea3c 0059 cc3c f2bc 3b3d
00000210: a5e8 3b3d c559 963c 0d0d 193d 1e8c c03c
00000220: b04a 17be 406b 563d e86e 27bc 0b54 41bd
00000230: 5b3a c03c 117c 3e3d 0c91 643d d7fe 7e3c
00000240: 63ab 913c 61e1 003d 31bc 53bd 0400 733c
00000250: 788c 72bd 92f9 8a3d d617 793d a276 d33d
00000260: 1b95 68bd 70fd 803d 23a1 84bd 410f a7bd
00000270: 29fa 8e3d ee6c d53c b9db 183a 3944 6dbd
00000280: 476e 9d3d 1116 ecbd 2931 2f3d 9c99 5a3d
00000290: 07b1 9abc bbee 24bd 1bfa 373d d07f 6b3d
000002a0: fbbf ee3c adc4 763c 96e2 963d 278e 5b3d
000002b0: 2599 8b3d e28b 1f3d fce1 8d3d b8e9 7d3b
000002c0: d098 e13c c530 023c 22a1 3cbc 3755 373d
000002d0: 9f36 783c b456 843d e899 223d d4d0 cdbc
000002e0: 7501 9f3c 4a9b 3d3d b638 8f3d 9032 9fbc
000002f0: f0bf 7ebc 5cb1 f43c 746c 97bc f786 823c
00000300: f14e 483c b17a 1f3d d51a da3c 14ef 803b
00000310: 619a cf3c afd5 b33c 9ae1 d53d 52b0 5cbd
00000320: 435c 1e3d e1e9 59bd 0ebe cf3c f0da ce3c
00000330: d1bf a9bb 7069 33bb dc58 74bd fb9b d33c
00000340: 9e0f 753d e477 5bbd 2185 aa3d 5825 323d
00000350: 5c37 203d a65d 2e3d 8015 003d 15b3 eb3c
00000360: 1f92 5dbd 173d af3d 94fa 87bc 04b4 a43c
00000370: 1b2f 6f3d c60e 513c 94d7 283d e018 e13c
00000380: 488b 90bc ee78 953c 804c 593d aa90 73bd
00000390: 974a ae3d d9cd 3abb 5269 f63c 6038 2fbc
000003a0: e896 1f3d 8f97 12bd 7c18 58bd b49a 823d
000003b0: 8867 ce3c 323f 1f3d b4e1 9b3d 4abb 1a3d
000003c0: c9a3 463d 7165 7f3d da83 623d bab4 6f3d
000003d0: 0803 6dbc 7775 a73d ac42 e93c ed6a 383d
000003e0: 9572 be3c a0ed 093d c31f 313c 197f 2b3c
000003f0: c406 8c3c bf69 703c 0a6c 0a3d cd8d 153d
0.07638671 0.012731745 0.004203062 0.09971332 -0.004996124 -0.013804616 0.041264955 -0.025268206
0.02204442 0.0780306 -0.052751496 -0.04711496 0.048731394 -0.013927319 0.020718591 0.040115815
0.045659985 -0.0074167005 0.0658899 0.028772786 -0.09569356 -0.08865987 0.048226185 0.03999908
0.07179668 0.046846166 -0.0995323 0.01482362 -0.03128168 0.08292052 -0.04044094 0.060405336
0.014121747 0.050942585 0.0013227393 -0.0695785 0.024523428 0.029801652 0.05319202 0.038919073
0.057327297 0.069383964 0.0280983 0.049347617 0.06505179 0.028789517 0.029570794 0.03513051
0.036470808 -0.027741324 0.03669692 0.014920647 0.029432599 0.035408262 0.028092502 -0.0017692071
-0.012037896 0.060377777 0.10950743 0.008423102 0.09352263 -0.0029640014 0.030602433 -0.005858511
0.04813374 0.0014251055 -0.0061832215 0.04349894 0.016403563 0.03294838 -0.029573053 0.012270587
0.014125413 -0.08194084 0.10632735 0.046693426 -0.059098806 -0.013436989 0.097820215 0.0037524384
0.042828888 0.045122378 0.045326445 -0.028838782 0.00611086 -0.019252026 0.036497463 0.08385215
0.015128541 -0.071547754 0.085803874 0.012838512 0.0026050517 0.1068571 0.015973521 0.04296145
0.037027977 0.059119042 -0.048202276 -0.085107714 -0.013451563 0.0505011 -0.024195397 0.061409105
-0.039943293 0.050263807 -0.022808777 0.043034393 0.013658428 0.009713882 0.03993402 0.024722785
-0.08162689 0.037507877 0.019903842 0.023723947 0.036059704 0.010498156 0.011673033 0.007959035
0.019472383 0.056273207 0.044795793 0.0076549808 0.042115368 0.038430676 -0.02742853 0.0280173
0.05513159 0.028575502 0.024944782 0.04583449 0.045876164 0.018353352 0.03736596 0.023504313
-0.14774585 0.052348375 -0.010219313 -0.04719929 0.023465326 0.046505038 0.05580239 0.015563688
0.017781919 0.031464938 -0.051693145 0.014831547 -0.059215993 0.06785883 0.060813747 0.10325362
-0.056782823 0.06298339 -0.06476047 -0.08157206 0.06981308 0.026052918 0.0005831081 -0.05792639
0.07687049 -0.11527646 0.042771492 0.05336915 -0.018883241 -0.040266734 0.044916254 0.05749494
0.029144278 0.01506154 0.073674366 0.053602364 0.068163194 0.038951762 0.06927869 0.0038744044
0.027538687 0.007946198 -0.011513026 0.044759 0.015149741 0.0646185 0.039697558 -0.025123991
0.019409874 0.046290673 0.06993239 -0.01943329 -0.015548691 0.029869728 -0.018484332 0.015933497
0.012225852 0.038935367 0.026624123 0.0039347503 0.025342168 0.021952478 0.10443421 -0.05387909
0.038662206 -0.05320156 0.02535918 0.025250882 -0.005180337 -0.0027376078 -0.059655055 0.025831213
0.059829347 -0.053581133 0.083261736 0.043492645 0.039115295 0.04256978 0.031270504 0.028771916
-0.05409443 0.08556574 -0.016598977 0.02010537 0.058394533 0.01275987 0.041221216 0.027477682
-0.01764454 0.01824614 0.05305147 -0.059464134 0.08510321 -0.0028504042 0.030079518 -0.010694593
0.038962275 -0.03578907 -0.052757725 0.063771635 0.025195852 0.038878627 0.07611409 0.03777627
0.04849604 0.0623526 0.055301525 0.058521964 -0.014466055 0.081767015 0.028474174 0.045023847
0.023247996 0.033673882 0.010810795 0.010467314 0.01709307 0.014673649 0.03379444 0.036512185

action_model._continuous_distribution.mu.bias f4 [3]
00000000: 09eb 40bd 4026 9bbd 3ae0 0fbe
-0.047099147 -0.07575655 -0.1405038

onnx::Div_66 f4 [26]
00000000: c689 ff3e 7254 8a3e 22e1 fd3e a08a 903e
00000010: 29dc 263e 9b7c 2e3e 8b05 f63e 919f a93e
00000020: 5466 863e 87d0 863e c6a9 b73e b4fb 983e
00000030: 94ad a53e c90c 963e 55d7 b93e 95ca 963e
00000040: a39f 513e 6147 553e be6f c63e da85 0c3e
00000050: 4706 ed3e 682c 853e 2bdd 623e c9fb 643d
00000060: 33dd 623e cafb 643d
0.499098 0.27017552 0.49585825 0.28230762 0.16294922 0.1703972 0.48051104 0.33129552
0.26249945 0.2633097 0.35871714 0.29879534 0.32358992 0.2930663 0.36297098 0.29451433
0.20471053 0.2082801 0.38757128 0.13722935 0.46293852 0.26010442 0.22154681 0.055904184
0.22154693 0.055904187

onnx::Div_69 f4 [3]
00000000: 9644 0c40 7ce9 0b40 bd0a 0c40
2.1916862 2.1861258 2.1881554
